training/models/autogluon_ei/models/NeuralNetFastAI/model-internals.pkl (torch, 216368 bytes, 24 tensors)

weight f4 [5, 4]
0	0x3b8cd96c	0.0042983796
1	0x3a900946	0.0010989092
2	0x3bcd445f	0.006264254
3	0x3b8d512e	0.004312656
4	0xbcbe2640	-0.023211598
5	0xbcdf18cd	-0.027233506
6	0xbcc2a347	-0.023759497
7	0xbd3585bb	-0.04431699
8	0x3d518fbb	0.051162463
9	0x3c4e500c	0.012592327
10	0x3d80d789	0.0629111
11	0xb9076d53	-0.0001291533
12	0xbcfd76f4	-0.03094051
13	0xbd9cf3c3	-0.07663681
14	0xbb64b132	-0.0034895656
15	0xbd118fe1	-0.035537604
16	0xbd49a204	-0.049226776
17	0x3ca67f0f	0.020324258
18	0xbb7c9b3c	-0.0038544675
19	0xbc0a63f0	-0.0084466785

weight f4 [5, 4]
0	0xbc008858	-0.007845007
1	0xbc4f7214	-0.012661476
2	0xbbf04edc	-0.0073336195
3	0xbc52221a	-0.012825513
4	0x3c08dcdb	0.008353437
5	0x3c81e2bc	0.015855186
6	0xbb93671e	-0.0044983765
7	0xbd0cf992	-0.034417696
8	0xbd02c0c5	-0.03192212
9	0x3ca1732a	0.019708235
10	0x3cb28db3	0.021796083
11	0xbc07a9ea	-0.008280257
12	0xbd06f570	-0.03294891
13	0x3ce00b66	0.027349185
14	0x3d436c5c	0.04771076
15	0xbd33dfdd	-0.043914665
16	0x3c8ff112	0.017571006
17	0xbc83be12	-0.016081844
18	0x3b7b61e2	0.0038357903
19	0x3c7c9c6f	0.015418156

weight f4 [5, 4]
0	0x3c2d26d9	0.010568344
1	0x3aa87796	0.0012853022
2	0x3c7c0741	0.015382589
3	0x3bfa5151	0.007639088
4	0xbd1e5edc	-0.038664684
5	0xbc84469b	-0.016146949
6	0x3c79e96a	0.015253404
7	0x3d1ccca9	0.038281117
8	0xbd5545ed	-0.05206864
9	0xbbdaef68	-0.0066813715
10	0x3c5ca74e	0.013467623
11	0x3c7f161f	0.015569239
12	0x3c392a6a	0.011301616
13	0x3cf12878	0.029438242
14	0x3d0efb54	0.034907654
15	0xbce4117d	-0.02784037
16	0xbbff24ba	-0.0077863606
17	0x3ced4169	0.028961854
18	0xbc627511	-0.013821856
19	0xbd14b773	-0.036307763

weight f4 [5, 4]
0	0x3ba7d1ed	0.0051214607
1	0x3b0bb1c5	0.0021315676
2	0x3a203a5e	0.0006112213
3	0x3bcf9bbd	0.006335704
4	0xbd264522	-0.040593274
5	0x3d415546	0.047200464
6	0x3cedb6c3	0.029017812
7	0x3d0fdb02	0.03512097
8	0x3c8d49fa	0.017247189
9	0x3d262868	0.04056588
10	0xbb9c7eb9	-0.0047758487
11	0xbd5a84a1	-0.05334914
12	0x3c66d453	0.014088708
13	0xbd04c456	-0.032413803
14	0xbd5d5d76	-0.05404421
15	0x3b48834c	0.0030595837
16	0x3cb4f237	0.022088153
17	0xbccc33a4	-0.024926968
18	0xbce65c8c	-0.028120302
19	0xbc97dc35	-0.01853762

weight f4 [5, 4]
0	0x3c9af73e	0.018916722
1	0x3c2165c0	0.009850919
2	0x3c20e8ee	0.00982116
3	0xbb8adef0	-0.004238002
4	0xbd0a2229	-0.033723984
5	0xbcf99388	-0.030465856
6	0x3c9ed81f	0.019390164
7	0x3c962e88	0.018332735
8	0xbd023f19	-0.031798456
9	0xbd5c71e2	-0.053819545
10	0x3da5a31b	0.080877505
11	0xbd1d5b84	-0.038417354
12	0x3d579efe	0.05264186
13	0x3d2682bd	0.040652025
14	0xbd47eb95	-0.048808653
15	0xbca9eb16	-0.02074198
16	0xbd3536a0	-0.044241548
17	0xbd3ba43e	-0.04581093
18	0x3cb4412d	0.022003734
19	0xbd16bbe5	-0.036800284

weight f4 [5, 4]
0	0xbbb1ca26	-0.0054257093
1	0x3bfc05af	0.007691107
2	0x3bda55bd	0.006663053
3	0x3c731838	0.014837317
4	0x3cdc4b45	0.02689136
5	0x3d90123b	0.07034727
6	0xbd4438c9	-0.047905717
7	0xbd53a807	-0.051673915
8	0x3da4b556	0.080423996
9	0x3d836d6e	0.064173564
10	0xbd72d53f	-0.0592854
11	0xbd9dc075	-0.07702724
12	0xbce6db7f	-0.028180836
13	0xbc9bde25	-0.019026825
14	0x3d108b53	0.03528912
15	0x3cf64def	0.030066459
16	0x3d0c65d6	0.034276806
17	0x3d71c1e6	0.059022807
18	0xbd8c1aa7	-0.06841021
19	0xbd9563dd	-0.07294438

weight f4 [5, 4]
0	0x3b8c3e39	0.0042798785
1	0xba772e5e	-0.00094292115
2	0x3b53979c	0.003228641
3	0xbaf04638	-0.0018331474
4	0xbcdb0b6f	-0.02673885
5	0x3e12d2b6	0.14338192
6	0x3d47d698	0.048788637
7	0x3dd34f73	0.10317888
8	0xbd1190c1	-0.03553844
9	0x3d479fd5	0.048736412
10	0x3c9ef38a	0.019403238
11	0x3d820874	0.063492686
12	0xbcd0496c	-0.025425635
13	0x3e0cc4da	0.13746968
14	0x3d8e771c	0.06956312
15	0x3db56042	0.0885625
16	0x3d240064	0.040039435
17	0xbd2e9d81	-0.042630676
18	0xbd46620c	-0.04843335
19	0xbcd43852	-0.025905762

weight f4 [5, 4]
0	0xbb3d9eec	-0.0028933836
1	0x3c5ba7a3	0.013406667
2	0x3c1bfa4a	0.009520123
3	0x3bf53a99	0.007483792
4	0xbcfcacf8	-0.030844197
5	0xbcb278e9	-0.02178617
6	0xbd14a8f4	-0.03629394
7	0x3d1dc3ac	0.038516685
8	0x3d1c42cf	0.03814965
9	0x3dc84263	0.09778287
10	0x3d19d29c	0.03755437
11	0x3bbec9d1	0.0058223982
12	0xbb45ecbe	-0.0030200924
13	0xbc6c3f39	-0.01441937
14	0xbc6df560	-0.014523834
15	0xbdb3047d	-0.087410904
16	0x3d847f1a	0.06469555
17	0x3d43abab	0.047771137
18	0x3d376d70	0.044782102
19	0xbd134161	-0.035951022

weight f4 [5, 4]
0	0xbb273dec	-0.0025519086
1	0x3bff9e5f	0.0078008617
2	0xbc3153d7	-0.010823212
3	0x3b53c9e2	0.0032316376
4	0xbcf85da2	-0.030318085
5	0xbd512339	-0.05105898
6	0x3c949e3d	0.01814186
7	0xbd5e97af	-0.054343875
8	0x3d3b0cb8	0.045666426
9	0xbd3eaf71	-0.046554033
10	0x3c07979e	0.008275894
11	0x3d0abd62	0.033872016
12	0x3d9e97e1	0.07743812
13	0xbb63992e	-0.0034728753
14	0xbcbff530	-0.023432344
15	0x3cb64357	0.022248907
16	0xbc2487cd	-0.010042143
17	0x3dc6dadd	0.097097136
18	0xbd13addb	-0.036054473
19	0xbc35adb9	-0.011088782

weight f4 [5, 4]
0	0x3bdfcf3b	0.0068301237
1	0x3c97af39	0.01851617
2	0xbc2131d2	-0.009838538
3	0x3b84bfc2	0.0040511796
4	0xbd2344f4	-0.03986068
5	0xbd8a7136	-0.067598745
6	0xbd3a907a	-0.04554794
7	0xbd5dc159	-0.05413947
8	0x3ca6b222	0.020348612
9	0xbd9cf7ff	-0.07664489
10	0xbd2e5143	-0.042557966
11	0x3d1b522f	0.037920173
12	0x3cfe8741	0.031070353
13	0x3d83f3a4	0.06442955
14	0x3d1c75bd	0.03819822
15	0x3ce2e9f1	0.027699443
16	0xbd1e4f14	-0.038649634
17	0xbd285454	-0.041096047
18	0xbcecf20d	-0.028924013
19	0xbd0958e8	-0.033532053

weight f4 [5, 4]
0	0xbb5f28a1	-0.0034051316
1	0x3c4166d8	0.011804305
2	0xbbcf8570	-0.0063330457
3	0x3ba8a9d2	0.0051471973
4	0x3d42bb1d	0.047541726
5	0x3d0cee8e	0.03440719
6	0xbc122b95	-0.008921524
7	0x3cf3fc48	0.029783383
8	0x3c676c77	0.014124981
9	0xbdcfcd81	-0.10146619
10	0xbd8547d3	-0.0650784
11	0x3bc6910a	0.0060597705
12	0xbbce32aa	-0.0062926607
13	0xbd5fd2a3	-0.05464424
14	0x3d0b1598	0.03395614
15	0x3b46058f	0.0030215716
16	0xbd0a78c2	-0.03380657
17	0x3ca40c7b	0.020025482
18	0xbc299ae0	-0.0103518665
19	0xbd3ca7a4	-0.046058312

weight f4 [5, 4]
0	0xbc4c43f3	-0.012467372
1	0xbb6e59d1	-0.0036369453
2	0xbc0fbad7	-0.008772573
3	0xbbdc14c7	-0.006716344
4	0x3be75360	0.0070594996
5	0x3ccc498d	0.024937415
6	0x3c43d57b	0.011952753
7	0x3da4dda4	0.08050087
8	0x3cf6bf5e	0.030120548
9	0x3bf2cecf	0.0074099074
10	0x3aaa6b0a	0.0013001871
11	0xbd09ce1b	-0.033643823
12	0x3be17e0c	0.006881481
13	0x3d2fc1ab	0.042909306
14	0xbd7ec256	-0.062197052
15	0x3aae6bc4	0.0013307263
16	0xbb1dbfd1	-0.002407063
17	0x3cd601fa	0.02612399
18	0xbcdaed0a	-0.026724357
19	0xbd0f0d98	-0.034925073

weight f4 [200, 48]
0	0x3e324ba9	0.17411675
1	0xbdd1e782	-0.10249235
2	0x3d9c3c7c	0.07628724
3	0x3adcb429	0.001683836
4	0xbcdb5f0e	-0.026778724
5	0x3d81a9f3	0.06331243
6	0xbd23ab0e	-0.039958052
7	0x3d4b33a9	0.049609814
8	0xbe0f9d97	-0.1402496
9	0xbccad98b	-0.024761936
10	0x3d4476a6	0.047964714
11	0x3e00f8da	0.1259493
12	0x3cff4136	0.031159025
13	0x3e04846f	0.12941144
14	0x3d783ec9	0.06060675
15	0x3da25da5	0.079280175
16	0xba9a5479	-0.0011774442
17	0xbd7cd0da	-0.061722614
18	0xbda21549	-0.07914216
19	0x3e2e488a	0.17019859
20	0x3e060b25	0.13090189
21	0x3e2ba38b	0.16761605
22	0x3bcbf3aa	0.0062241154
23	0xbe30d59e	-0.17268988
24	0xbd8455e5	-0.064616956
25	0x3e881491	0.2657819
26	0x3dce53a4	0.10074547
27	0x3e3398b0	0.17538714
28	0x3d940f91	0.072295316
29	0x3db7c73c	0.08973548
30	0xbb34298e	-0.002749059
31	0x3adc32fc	0.0016799862
32	0xbdd23f16	-0.10265939
33	0xbd33e20f	-0.04391676
34	0x3be0a2c6	0.0068553416
35	0x3d0871ed	0.033311773
36	0x3de58de1	0.11208702
37	0x3e66a66c	0.22524422
38	0x3e06f320	0.13178682
39	0x3dea846d	0.114510395
40	0x3dbaccaa	0.09121068
41	0x3d92d00d	0.07168589
42	0xbd350189	-0.044190917
43	0xbcf1c7ad	-0.029514158
44	0x3d17bf6f	0.0370478
45	0xbdc00c39	-0.09377331
46	0x3cad6dd1	0.021170529
47	0x3c3cf8dd	0.011533943
48	0xbd3f956a	-0.04677335
49	0xbc1ef409	-0.009701737
50	0x3e011d8a	0.12608925
51	0x3d7f8222	0.062379964
52	0xbce42b97	-0.027852817
53	0xbe3457b9	-0.17611589
54	0x3dce2d31	0.10067213
55	0xbd1b1e43	-0.037870657
56	0x3dcc171e	0.09965347
57	0xbdf8ae84	-0.12142661
58	0xbd8e2280	-0.06940174
59	0x3e4e3218	0.20136297
60	0xbcc8eb4c	-0.02452626
61	0xbdbac95b	-0.09120437
62	0x3e18888a	0.14895836
63	0xbde89597	-0.11356657
64	0x3e0cb2a0	0.13740015
65	0x3dce13a1	0.10062338
66	0x3e15adaa	0.14617029
67	0xbdbc4ca5	-0.09194306
68	0xbdda1806	-0.10649113
69	0x3d8c613e	0.06854485
70	0x3dae4451	0.08509124
71	0x3d77ef1b	0.060530763
72	0x3df6e2ea	0.12054999
73	0xbdffea2e	-0.12495838
74	0x3e11a168	0.14221728
75	0xbe006118	-0.12537038
76	0xbded3f06	-0.115842864
77	0xbde746f4	-0.1129283
78	0xbddcb319	-0.10776348
79	0x3e2a32b3	0.16620903
80	0xbdb9c48f	-0.09070694
81	0x3d2435db	0.040090423
82	0xbdd6067a	-0.10450454
83	0xbe09eb0d	-0.13468571
84	0x3cdc57bb	0.026897302
85	0xbdedfd4a	-0.11620577
86	0xbe226e8a	-0.1586248
87	0xbd8cde19	-0.06878299
88	0xbe0005f5	-0.12502272
89	0xbde7c17d	-0.11316202
90	0x3da4a853	0.08039918
91	0x3e02dd07	0.12779628
92	0xbb86162d	-0.004091999
93	0xbdd4f7a3	-0.103987955
94	0x3d17bdd9	0.037046287
95	0xbcf5abc1	-0.029989125
96	0xbdd9ce61	-0.10635067
97	0x3ce3a9b0	0.027790874
98	0x3e3367f3	0.17520122
99	0xbddb200e	-0.10699473
100	0xbe0b5a24	-0.13608605
101	0x3d2c735f	0.042102214
102	0x3dd743c5	0.10510973
103	0xbdfce0b4	-0.12347546
104	0x3be0fe8a	0.006866281
105	0x3dd5c319	0.104376025
106	0x3dec9110	0.11551106
107	0x3dd93111	0.10605062
108	0x3e023082	0.12713817
109	0x3dcee676	0.10102551
110	0xbde65bea	-0.11248
111	0x3bcba404	0.0062146205
112	0x3cd6512d	0.026161755
113	0x3dbb84f3	0.091562174
114	0xbddda113	-0.10821738
115	0x3d4e41a9	0.050355587
116	0xbcfea15d	-0.031082803
117	0xbe263843	-0.162324
118	0x3d3206dc	0.043463573
119	0xbdcc20d1	-0.09967197
120	0x3d6f4ab0	0.058420837
121	0xbd990c7e	-0.07473086
122	0xbe315717	-0.17318378
123	0xbc3357f9	-0.010946267
124	0x3c04f046	0.008113926
125	0x3e0f01e7	0.1396557
126	0x3be9c4a9	0.0071340394
127	0x3da23b89	0.07921512
128	0x3caa4d2a	0.020788748
129	0xbd0b15c3	-0.0339563
130	0x3dbc7e38	0.09203762
131	0x3cfbd8e1	0.030743064
132	0xbcf33ee7	-0.02969308
133	0xbdd32382	-0.10309507
134	0xbcd6fa3a	-0.026242364
135	0xbd593a8c	-0.05303435
136	0xbce1581e	-0.027507838
137	0xbe1cc9e2	-0.15311387
138	0xbd3470f9	-0.04405305
139	0xbdf6dba9	-0.120536156
140	0xbb8a154c	-0.0042139646
141	0x3d738056	0.059448563
142	0xbda217f3	-0.07914724
143	0xbdde54fd	-0.10856054
144	0x3d85752c	0.065164894
145	0xbd4756c4	-0.04866673
146	0x3cbaca73	0.022801613
147	0xbd009e98	-0.031401247
148	0x3c511ad4	0.012762744
149	0xbdd81487	-0.1055079
150	0xbde32c8e	-0.110924825
151	0x3e8a3ad0	0.26997995
152	0x3e84a8f0	0.2591014
153	0x3cdee3a7	0.027208162
154	0xbcfbfe66	-0.030760955
155	0xbd12d3b4	-0.035846427
156	0x3e3af730	0.18258357
157	0xbe0a2b09	-0.13492979
158	0xbdbb16cd	-0.09135208
159	0xbb3b4876	-0.0028577126
160	0xbd79c681	-0.060980324
161	0xbe0d418c	-0.13794535
162	0xbdcdbcbc	-0.10045764
163	0x3e056bcd	0.13029404
164	0xbb859fd2	-0.00407789
165	0x3d210c56	0.039318405
166	0x3d2441a8	0.040101677
167	0xbca7b015	-0.020469705
168	0x3cc04d3c	0.023474328
169	0xbd293bac	-0.041316673
170	0x3de7b055	0.113129295
171	0x3d1082e0	0.035281062
172	0xbe89e76b	-0.2693437
173	0xbd615b47	-0.05501869
174	0xbe60e120	-0.21960878
175	0x3dd8c811	0.10585035
176	0x3d180b7c	0.037120327
177	0x3ddac31e	0.10681747
178	0x3caadd3d	0.020857448
179	0xbd1cb2b6	-0.03825637
180	0x3e0fb767	0.14034806
181	0x3d23fd4f	0.040036496
182	0x3e3f01c2	0.18653014
183	0x3d5d5692	0.054037638
184	0xbe5a20db	-0.21301596
185	0x3c79426a	0.015213588
186	0x3d2de21d	0.042451967
187	0xbd4b3efd	-0.049620617
188	0x3d46e27b	0.048555832
189	0x3ce4eec9	0.027945893
190	0xbdceafd0	-0.10092127
191	0x3d3b581a	0.045738317
192	0x3dcc10d3	0.099641465
193	0x3db3b9ac	0.087756485
194	0x3cf5625d	0.02995413
195	0xbda2870a	-0.07935913
196	0xbc3093c0	-0.010777414
197	0x3daff423	0.08591487
198	0x3d257764	0.040397063
199	0x3e291c00	0.16514587
200	0xbd879b92	-0.066214696
201	0xbdbf4df2	-0.09341039
202	0xbc432070	-0.011909589
203	0xbe0e4872	-0.13894823
204	0xbcf7e20d	-0.030259157
205	0x3e37d885	0.1795369
206	0x3dd70038	0.104980886
207	0x3ce5d790	0.02805689
208	0x3e238c97	0.159716
209	0xb9e50fc0	-0.00043690018
210	0x3d8566aa	0.06513722
211	0xbe03ba5d	-0.1286406
212	0xbe526196	-0.20545039
213	0xbe4d34b6	-0.20039639
214	0x3e5a8820	0.2134099
215	0x3d7a5f73	0.061126184
216	0x3dd4b312	0.103857175
217	0xbe59b4c6	-0.21260366
218	0xbd687288	-0.05674985
219	0xbda87f37	-0.08227389
220	0xbd92cb11	-0.07167638
221	0xba8dce5e	-0.0010818949
222	0xbb9a57e4	-0.0047101844
223	0x3d47c1f6	0.04876896
224	0xbd00f4d5	-0.03148349
225	0xbe2a069b	-0.16604082
226	0x3bd8ba87	0.0066140327
227	0x3ced9ced	0.029005492
228	0xbdff58a9	-0.124680825
229	0x3e019d1d	0.1265759
230	0x3b43dae4	0.0029885108
231	0xbbd6b0d4	-0.0065518413
232	0xbd965871	-0.073410876
233	0xbdc92498	-0.09821433
234	0x3cf9fdf5	0.030516604
235	0xbda9a317	-0.0828306
236	0x3d0d12bd	0.0344417
237	0xbbe93f90	-0.007118173
238	0x3db2e817	0.08735674
239	0x3dcd493e	0.100237355
240	0xbe060416	-0.13087496
241	0x3cd9510b	0.026527902
242	0xbdb565bc	-0.08857295
243	0xbe08a3dc	-0.13343757
244	0x3b03faca	0.0020138496
245	0x3bc8d7bb	0.0061292327
246	0xbd1364de	-0.035984866
247	0xbe10c958	-0.14139307
248	0xbcf92b53	-0.030416166
249	0x3d96e897	0.07368582
250	0xbe6d982c	-0.2320258
251	0xbe4fc0db	-0.20288412
252	0x3d4922c8	0.049105436
253	0xbe130150	-0.1435597
254	0xbe081049	-0.13287462
255	0xbdd16b49	-0.10225541

weight f4 [200]
0	0x3f731e2a	0.949679
1	0x3f7bb046	0.98315847
2	0x3f734fd9	0.9504371
3	0x3f6e4c4a	0.9308516
4	0x3f7a6e36	0.9782442
5	0x3f80a75d	1.0051075
6	0x3f7c5dfe	0.9858092
7	0x3f73b1e0	0.9519329
8	0x3f8ce2db	1.1006731
9	0x3f860dd1	1.0472966
10	0x3f7450e9	0.9543596
11	0x3f5d841e	0.8652972
12	0x3f801053	1.0004982
13	0x3f718ca0	0.943552
14	0x3f75b862	0.9598447
15	0x3f86aa22	1.052067
16	0x3f74adc0	0.9557762
17	0x3f824f3a	1.0180428
18	0x3f83a690	1.0285206
19	0x3f725d1e	0.94673336
20	0x3f836fff	1.0268553
21	0x3f7b9a32	0.9828216
22	0x3f7b131a	0.9807602
23	0x3f800d35	1.000403
24	0x3f874470	1.056776
25	0x3f66be9a	0.90134585
26	0x3f808670	1.0041027
27	0x3f7f2e66	0.99680173
28	0x3f833b38	1.0252447
29	0x3f92c9dc	1.1467853
30	0x3f871251	1.0552465
31	0x3f69925a	0.9123894
32	0x3f6c33eb	0.9226672
33	0x3f706e5b	0.9391839
34	0x3f7a3c60	0.97748375
35	0x3f73cc0c	0.95233226
36	0x3f7ac262	0.97952855
37	0x3f84ba80	1.0369415
38	0x3f6c70d7	0.9235968
39	0x3f7dbc03	0.9911501
40	0x3f7f39de	0.99697673
41	0x3f86903f	1.051277
42	0x3f7ddf56	0.9916891
43	0x3f826df8	1.018981
44	0x3f6ffd72	0.937461
45	0x3f68302f	0.9069852
46	0x3f9143a8	1.1348772
47	0x3f7dc85b	0.99133843
48	0x3f842845	1.0324789
49	0x3f813274	1.0093522
50	0x3f8445bd	1.0333782
51	0x3f6f3453	0.93439215
52	0x3f5e4aab	0.86832684
53	0x3f78f5db	0.97250146
54	0x3f86b75e	1.0524709
55	0x3f865ceb	1.0497106
56	0x3f76c724	0.96397614
57	0x3f80b162	1.0054133
58	0x3f83f617	1.0309476
59	0x3f811fe0	1.0087852
60	0x3f82d7ee	1.0222147
61	0x3f88ea93	1.0696586
62	0x3f7a93ec	0.9788196
63	0x3f74ac47	0.95575374
64	0x3f7a2ab3	0.97721404
65	0x3f7ad9f7	0.9798884
66	0x3f877138	1.0581427
67	0x3f7b2b99	0.981134
68	0x3f73a332	0.9517089
69	0x3f6c97c7	0.92419094
70	0x3f7973b0	0.9744215
71	0x3f8701ad	1.0547386
72	0x3f82df07	1.0224313
73	0x3f87642e	1.0577447
74	0x3f7250b0	0.9465437
75	0x3f82010c	1.015657
76	0x3f7e1269	0.9924684
77	0x3f8268d8	1.0188246
78	0x3f9716fe	1.1803892
79	0x3f770bd9	0.96502453
80	0x3f806904	1.0032048
81	0x3f7666ef	0.96250814
82	0x3f7f2eda	0.99680865
83	0x3f81e053	1.0146583
84	0x3f7ce4a1	0.9878636
85	0x3f725dd2	0.9467441
86	0x3f84418f	1.0332507
87	0x3f7d438d	0.989312
88	0x3f84edd2	1.0385077
89	0x3f780834	0.96887517
90	0x3f5abb10	0.85441685
91	0x3f7257a7	0.94664997
92	0x3f80b2e8	1.0054598
93	0x3f82fe98	1.0233946
94	0x3f7377f6	0.9510492
95	0x3f6f40f9	0.93458515
96	0x3f7a8222	0.97854817
97	0x3f842cc0	1.0326157
98	0x3f74ff72	0.9570228
99	0x3f82c8ba	1.0217507
100	0x3f8c060c	1.0939345
101	0x3f79de9f	0.9760532
102	0x3f797eac	0.9745891
103	0x3f7b0b7a	0.98064387
104	0x3f775360	0.96611595
105	0x3f6de884	0.92932916
106	0x3f761be5	0.96136314
107	0x3f83c61a	1.0294831
108	0x3f884c68	1.0648317
109	0x3f93d8b0	1.1550503
110	0x3f80c202	1.0059206
111	0x3f83054c	1.0235991
112	0x3f80d136	1.0063846
113	0x3f823927	1.0173692
114	0x3f810c1b	1.0081819
115	0x3f875497	1.057269
116	0x3f7e9f75	0.9946206
117	0x3f7bf949	0.98427254
118	0x3f7a7539	0.9783512
119	0x3f799795	0.9749692
120	0x3f750ea3	0.9572546
121	0x3f7615d9	0.96127087
122	0x3f8b7fae	1.089834
123	0x3f80eb37	1.0071782
124	0x3f7ecd6b	0.9953219
125	0x3f6b5b5e	0.9193629
126	0x3f995cfd	1.1981503
127	0x3f90e92f	1.1321162
128	0x3f6821c2	0.9067651
129	0x3f794010	0.97363377
130	0x3f790f4e	0.9728898
131	0x3f6d5e02	0.9272157
132	0x3f7ef84a	0.9959761
133	0x3f700a78	0.93765974
134	0x3f688d10	0.90840244
135	0x3f8ce43d	1.1007153
136	0x3f71d531	0.9446593
137	0x3f82eab3	1.0227875
138	0x3f83885a	1.0275986
139	0x3f7e7e38	0.99411345
140	0x3f831871	1.0241834
141	0x3f8147a3	1.0099987
142	0x3f81ff7c	1.0156093
143	0x3f7e2bb1	0.9928542
144	0x3f877e32	1.0585387
145	0x3f849260	1.035717
146	0x3f82fa0f	1.0232562
147	0x3f810bc6	1.0081718
148	0x3f81089e	1.0080755
149	0x3f6ffe53	0.9374744
150	0x3f7d967d	0.9905775
151	0x3f69408e	0.9111413
152	0x3f84de49	1.0380336
153	0x3f8d0fbd	1.1020428
154	0x3f8450b5	1.033713
155	0x3f6e8c16	0.93182504
156	0x3f82e052	1.0224707
157	0x3f77bddb	0.9677407
158	0x3f72f51e	0.9490527
159	0x3f7d9ad3	0.9906437
160	0x3f86936f	1.0513743
161	0x3f84e44d	1.0382172
162	0x3f8b6668	1.0890627
163	0x3f6f74d8	0.93537664
164	0x3f7989f8	0.9747615
165	0x3f85e86d	1.0461556
166	0x3f821177	1.016158
167	0x3f927d26	1.1444442
168	0x3f7b04e1	0.9805432
169	0x3f80307d	1.0014797
170	0x3f7e0821	0.99231154
171	0x3f7d0e14	0.98849607
172	0x3f838b19	1.0276824
173	0x3f6d0ca7	0.9259743
174	0x3f8270e8	1.0190706
175	0x3f82af00	1.0209656
176	0x3f85cf0e	1.0453813
177	0x3f822315	1.0166956
178	0x3f7f1919	0.9964767
179	0x3f9cb936	1.2244022
180	0x3f8e1139	1.1099006
181	0x3f7c0d74	0.9845803
182	0x3f847ba5	1.0350233
183	0x3f7a61db	0.97805566
184	0x3f8ea895	1.1145197
185	0x3f706929	0.9391046
186	0x3f800cc8	1.00039
187	0x3f80022d	1.0000664
188	0x3f717526	0.9431938
189	0x3f767677	0.96274513
190	0x3f8ad588	1.0846415
191	0x3f8381f9	1.027404
192	0x3f6c9dfe	0.92428577
193	0x3f86ef0f	1.0541705
194	0x3f72e207	0.9487614
195	0x3f7cda3b	0.98770493
196	0x3f84c635	1.0372988
197	0x3f766f6b	0.9626376
198	0x3f7930e5	0.9734023
199	0x3f77510d	0.9660805

bias f4 [200]
0	0x3d6eba3e	0.058283083
1	0xbcb9e366	-0.02269144
2	0xbd8a6265	-0.067570485
3	0x3cdb6773	0.026782727
4	0x3d4365ef	0.047704633
5	0xbccc0bdb	-0.024907997
6	0x3cb62335	0.022233585
7	0x3c2bccac	0.010485809
8	0xbb88c190	-0.004173465
9	0xb98d5694	-0.0002695812
10	0x3db8f706	0.09031491
11	0xbdf20306	-0.11816983
12	0xbc42ebcb	-0.011897038
13	0x3d23d244	0.039995447
14	0x3d166931	0.036721412
15	0x3d47a7f0	0.048744142
16	0xbcbf6c5d	-0.023367101
17	0xba8a2d20	-0.0010542013
18	0x3dd78a50	0.10524428
19	0x3be86814	0.007092485
20	0xbc540b26	-0.012942111
21	0x3c9c2ed7	0.019065304
22	0x3c5182d3	0.012787539
23	0x3c00e129	0.007866182
24	0xbd05b923	-0.032647263
25	0x3bdf0ab4	0.006806696
26	0x3d192b9c	0.037395105
27	0x3ba2bfe8	0.0049667247
28	0x3d8bf0ed	0.06833062
29	0xbb22e635	-0.0024856452
30	0xbd711c4f	-0.058864888
31	0x3cd5bb5d	0.026090318
32	0x3d41eb18	0.047343343
33	0xbd22c3fe	-0.039737694
34	0xbc6c21dc	-0.01441237
35	0xbb2f7b95	-0.0026776541
36	0xbc5b8533	-0.013398456
37	0xbd86b565	-0.06577567
38	0x3c97a49b	0.018511107
39	0xbd10cb30	-0.035350025
40	0x3caa328f	0.020776061
41	0xbd95828d	-0.07300291
42	0xbd2138dd	-0.03936087
43	0xbb60c70a	-0.0034298324
44	0x3c227e2a	0.009917775
45	0x3c2dedb5	0.010615756
46	0x3d14d73d	0.03633808
47	0x3c3ced5e	0.011531202
48	0xbbe5f0ce	-0.0070172315
49	0xbc079881	-0.008276106
50	0x3ce57020	0.028007567
51	0xbc63af8c	-0.013896834
52	0xbcfa2aeb	-0.030538043
53	0x3c97c110	0.018524677
54	0x3ca722e8	0.020402387
55	0x3d0cc019	0.034362886
56	0x3cf92c6b	0.030416688
57	0xbd2b6b3f	-0.041850325
58	0x3d829991	0.06376947
59	0x3bf61823	0.0075102015
60	0x3d49486f	0.049141344
61	0x3d9393c3	0.07205918
62	0x3d27368d	0.040823508
63	0x3d6515de	0.055929057
64	0x3d2ca4b9	0.04214928
65	0xbd0c1e7b	-0.034208756
66	0xbd4808d6	-0.04883655
67	0xbd5a0d3f	-0.05323529
68	0x3c982fea	0.018577535
69	0xbb970bb6	-0.0046095503
70	0x3cc0e4cf	0.023546604
71	0x3a6d8e34	0.00090620224
72	0x3caf25f8	0.02138041
73	0x3c289f03	0.010291818
74	0xbc5bf83d	-0.013425884
75	0xbc0a37fe	-0.008436201
76	0xbc71d01b	-0.014759089
77	0xbc68aa2b	-0.014200727
78	0x3d4e0ab1	0.050303165
79	0xbd616deb	-0.055036467
80	0x3d49be5e	0.049253814
81	0x3bade7da	0.00530718
82	0x3dcdfa4c	0.10057506
83	0x3d70e0ac	0.058808014
84	0x3d638790	0.055549204
85	0x3c89b622	0.01681048
86	0x3cca4336	0.024690252
87	0x3d25f0a4	0.040512696
88	0xbd7ae096	-0.061249338
89	0xbc845425	-0.016153404
90	0x3d5d3e15	0.054014284
91	0xbcd61584	-0.026133306
92	0x3ca7cd13	0.02048353
93	0xbc18b8b1	-0.009321378
94	0xbc9d13ab	-0.019174417
95	0xbb98fd23	-0.004668848
96	0x3d63723c	0.055528864
97	0x3d522eff	0.05131435
98	0x3d502bf4	0.050823167
99	0x3d7f3746	0.062308572
100	0xbc6dc3b6	-0.014511993
101	0x3cd74b61	0.02628106
102	0xbcdd81be	-0.027039405
103	0xbd2cc143	-0.042176496
104	0xbd2dc359	-0.042422626
105	0x3c9929e3	0.018696731
106	0xbc9b0de4	-0.018927522
107	0xbc6e4803	-0.014543536
108	0x3cc20595	0.023684302
109	0xbcafcbac	-0.021459423
110	0x3d9fd274	0.078038126
111	0x3c8f7d02	0.017515663
112	0xbcc18717	-0.023623986
113	0xbdadfc98	-0.08495444
114	0x3c5c917a	0.013462419
115	0xbaa1fad6	-0.001235808
116	0x3d9fa2e3	0.0779474
117	0xbc5176d0	-0.012784675
118	0x3d172853	0.03690369
119	0xbc17c665	-0.00926361
120	0x3ca778a0	0.02044326
121	0x3d2a51e5	0.041582007
122	0xbd27f0c0	-0.04100108
123	0x3d1e37d5	0.038627464
124	0x3bfa235b	0.007633609
125	0xbc117ba0	-0.008879572
126	0xbd70f6b6	-0.058829032
127	0x3cb7fc36	0.02245913
128	0x3ca6720d	0.020318056
129	0x3c999d9e	0.018751916
130	0x3d6e07b0	0.0581128
131	0x3d09666d	0.033544946
132	0xbd09a807	-0.03360751
133	0x3d2e1cd1	0.04250795
134	0xbd0a7ce7	-0.033810522
135	0x3cbbd4fc	0.022928707
136	0x3cf5f0e6	0.030022096
137	0x3d1c7d5a	0.038205482
138	0x3c6f3893	0.014600891
139	0x3cfe673f	0.031055091
140	0x3c8b24ac	0.01698526
141	0x3d48464b	0.04889516
142	0x3b1b89cc	0.0023733256
143	0xbb9d6da0	-0.004804328
144	0xbc1524c0	-0.009103
145	0x3d5989e2	0.05311001
146	0xbd7342b0	-0.05938977
147	0xbb622a92	-0.0034510237
148	0xbc831839	-0.016002761
149	0x3d346d3f	0.044049498
150	0xbd048891	-0.032356802
151	0x3d813da1	0.06310583
152	0x3c21e7ee	0.0098819565
153	0xbd1f86c3	-0.03894688
154	0xbcbc1657	-0.022959871
155	0x3d39aee2	0.045332797
156	0xbd14d6fd	-0.03633784
157	0x3b49bfa4	0.0030784393
158	0xbc3db89e	-0.011579661
159	0xbd3193e1	-0.04335392
160	0xbd986eaf	-0.07442986
161	0x3c2df64f	0.010617807
162	0x3d52bd04	0.05144979
163	0x3bdf6428	0.0068173595
164	0x3d012262	0.03152693
165	0x3c6109fc	0.013735291
166	0x3d2c32c7	0.042040613
167	0x3cac2566	0.021013927
168	0x3d1f4389	0.038882766
169	0x3bdae1da	0.0066797556
170	0xbcbe0097	-0.02319364
171	0xbbd97a90	-0.006636925
172	0xbc90e764	-0.01768846
173	0x3c542cd0	0.012950137
174	0x3d37df47	0.04489067
175	0x3d6cc348	0.057803422
176	0xbc8d4a6a	-0.017247397
177	0xbc88e28e	-0.016709592
178	0xbd01bc00	-0.03167343
179	0xbc187322	-0.009304794
180	0xbc625ca4	-0.013816033
181	0x3d71eb9f	0.059062596
182	0x3bb9d2e2	0.005670891
183	0xbd1362c9	-0.03598288
184	0x3c445f88	0.011985667
185	0xbcd51486	-0.026010763
186	0xbdb1503d	-0.08657882
187	0xbbe31760	-0.0069302768
188	0xbc8dec0a	-0.017324466
189	0x3c080981	0.008303047
190	0x3ce58f63	0.028022474
191	0xbd9021b7	-0.070376806
192	0x3b1b95c6	0.0023740395
193	0xbce3af45	-0.027793536
194	0x3da53d60	0.08068347
195	0x3d5ff047	0.054672506
196	0x3cbf73a5	0.023370573
197	0x3c12bc35	0.008956005
198	0xbd79d5b0	-0.060994804
199	0x3cca5beb	0.024702033

running_mean f4 [200]
0	0x3c90a918	0.017658755
1	0x3c1ef69c	0.009702351
2	0x3ccc852e	0.024965849
3	0x3be2bf4f	0.0069197784
4	0x3d0acb99	0.033885572
5	0x3c70e070	0.014701948
6	0x3c41fb73	0.011839735
7	0x3be26b34	0.0069097523
8	0x3c9134ed	0.017725432
9	0x3ce582cf	0.028016476
10	0x3ca3f9ba	0.02001654
11	0x3ca79084	0.020454653
12	0x3c623ad3	0.01380797
13	0x3c37631c	0.011193063
14	0x3bf8fde4	0.0075986255
15	0x3b9c7a61	0.004775331
16	0x3b342bd2	0.002749194
17	0x3c109663	0.0088249175
18	0x3d04fb68	0.032466322
19	0x3c861372	0.016366694
20	0x3cffc140	0.031220078
21	0x3bb1e7a8	0.005429227
22	0x3c58f9ea	0.013243178
23	0x3c26911c	0.010166433
24	0x3c51fa74	0.01281606
25	0x3ca2770d	0.019832158
26	0x3c9f63fc	0.019456856
27	0x3bd21ca1	0.0064121042
28	0x3c3d5fe4	0.011558507
29	0x3d196cd6	0.03745731
30	0x3cee560d	0.029093767
31	0x3c931410	0.017953902
32	0x3c18894f	0.009310081
33	0x3c0b9866	0.008520221
34	0x3ccb62f4	0.024827458
35	0x3c2a11d4	0.010380227
36	0x3c319b5e	0.010840265
37	0x3c15b8ed	0.009138328
38	0x3c549019	0.012973809
39	0x3c0e2a6b	0.008677105
40	0x3c0b570e	0.008504642
41	0x3bd0931c	0.006365193
42	0x3b866be6	0.004102218
43	0x3c904488	0.017610803
44	0x3c9aac2a	0.018880922
45	0x3bfa33ea	0.007635583
46	0x3c2673a2	0.010159405
47	0x3d14527f	0.036211487
48	0x3c812b92	0.015767846
49	0x3c59b810	0.013288513
50	0x3bf8b267	0.0075896266
51	0x3c013aeb	0.007887582
52	0x3d047c50	0.032345116
53	0x3c395840	0.011312544
54	0x3d2acd94	0.04169996
55	0x3d1a8c9c	0.03773175
56	0x3bc6905c	0.0060596894
57	0x3c187c27	0.009306944
58	0x3cde1c5f	0.027113138
59	0x3c39a9fd	0.011332032
60	0x3d284c28	0.041088253
61	0x3d17106d	0.0368809
62	0x3ba192b0	0.0049308166
63	0x3c854509	0.01626827
64	0x3c2b144a	0.010441849
65	0x3c160ac1	0.009157837
66	0x3c8bfb78	0.017087683
67	0x3c4537f8	0.01203727
68	0x3c7e61ab	0.015526216
69	0x3c700c6a	0.014651397
70	0x3b2f7f82	0.0026778881
71	0x3c937cd9	0.018003868
72	0x3c862caf	0.016378729
73	0x3c71f31c	0.014767434
74	0x3c8252a3	0.015908545
75	0x3c29bcfc	0.010359999
76	0x3d222fed	0.039596487
77	0x3ca68f55	0.020332018
78	0x3b2bcdd6	0.0026215217
79	0x3c8fcdbe	0.01755416
80	0x3c57cd98	0.013171576
81	0x3c687fae	0.014190597
82	0x3bbeea13	0.0058262437
83	0x3c9796d6	0.018504541
84	0x3ce9d76c	0.028545104
85	0x3bc58e1c	0.0060289036
86	0x3c38bdf9	0.011275762
87	0x3b964d41	0.004586846
88	0x3c40423f	0.011734544
89	0x3c2e3f9d	0.010635284
90	0x3c70c23e	0.014694748
91	0x3c090706	0.008363491
92	0x3c8de87a	0.017322768
93	0x3c54be86	0.012984877
94	0x3c59b618	0.013288043
95	0x3c9e95df	0.019358573
96	0x3c1a1a36	0.009405663
97	0x3cea8c64	0.028631397
98	0x3c237e09	0.00997878
99	0x3d123cb6	0.03570243
100	0x3c38dbb2	0.011282848
101	0x3b0a4a7f	0.0021101532
102	0x3c95c519	0.01828246
103	0x3c11450e	0.008866562
104	0x3c2764fb	0.010216947
105	0x3c4af8a7	0.012388385
106	0x3bb9a5d2	0.0056655193
107	0x3c8ee114	0.01744131
108	0x3cbc3540	0.02297461
109	0x3ca5ddae	0.020247307
110	0x3c83e93b	0.016102424
111	0x3c25ed7f	0.010127424
112	0x3c5a6712	0.013330238
113	0x3c903aba	0.017606128
114	0x3c8cac8d	0.017172122
115	0x3d35d06e	0.044388227
116	0x3ccef66f	0.025263993
117	0x3c0c7d03	0.008574727
118	0x3b6d8cb7	0.0036247203
119	0x3c8a20da	0.016861368
120	0x3b66b74a	0.0035204464
121	0x3c94a2f6	0.018144112
122	0x3bb59adf	0.0055421437
123	0x3c61dc3c	0.013785418
124	0x3d1cb7b9	0.03826115
125	0x3cdb93cb	0.026803872
126	0x3c3d7956	0.011564573
127	0x3c1771df	0.009243458
128	0x3cab0be0	0.020879686
129	0x3c74e345	0.014946763
130	0x3c05b036	0.008159688
131	0x3ca3a3ad	0.019975508
132	0x3c294bc8	0.010333009
133	0x3c039d67	0.008033133
134	0x3b9babea	0.0047507184
135	0x3cdfd914	0.02732519
136	0x3bbb839e	0.005722477
137	0x3b830530	0.003998421
138	0x3d4cb26a	0.049974836
139	0x3ba887ee	0.005143157
140	0x3c02a8c0	0.007974803
141	0x3bcba457	0.006214659
142	0x3d0bd467	0.03413811
143	0x3c7ad777	0.01531016
144	0x3cb2f56f	0.021845547
145	0x3c7c8aec	0.015413981
146	0x3c8c478e	0.017123964
147	0x3c42eb8a	0.011896977
148	0x3b901b85	0.004397812
149	0x3cd1612c	0.02555903
150	0x3c62b25e	0.013836471
151	0x3bb51cea	0.0055271285
152	0x3c37e515	0.011224051
153	0x3b9c6537	0.004772808
154	0x3c66d0a7	0.0140878325
155	0x3c02ebd1	0.007990793
156	0x3cb77d66	0.022398662
157	0x3c7dd370	0.015492305
158	0x3b5c3b1e	0.0033604573
159	0x3bc0c6f1	0.0058830907
160	0x3c712b57	0.014719806
161	0x3cb0f9bc	0.021603458
162	0x3c88831c	0.01666408
163	0x3bde8cd1	0.006791689
164	0x3bbddede	0.00579439
165	0x3cac9011	0.02106479
166	0x3be7ffee	0.0070800697
167	0x3be52c4b	0.0069938055
168	0x3cb28267	0.021790696
169	0x3d05f802	0.03270722
170	0x3c616b37	0.013758472
171	0x3bb8e969	0.005643059
172	0x3c911446	0.017709862
173	0x3cdbfd35	0.026854137
174	0x3b9d6ea8	0.004804451
175	0x3c47ced0	0.012195304
176	0x3bf56ba3	0.007489638
177	0x3d364968	0.0445036
178	0x3b389c84	0.0028169462
179	0x3c1dab51	0.009623365
180	0x3c084163	0.008316371
181	0x3b6d3fd4	0.0036201375
182	0x3ba3f9c8	0.0050041415
183	0x3c294387	0.010331041
184	0x3d1b0246	0.037843965
185	0x3c765aa3	0.015036258
186	0x3c33ea74	0.010981191
187	0x3c17d3bf	0.009266793
188	0x3bfe2a02	0.0077564726
189	0x3c3c6fec	0.011501294
190	0x3d038891	0.03211266
191	0x3caf2d3e	0.021383878
192	0x3c8e81d9	0.0173959
193	0x3d3a29d6	0.045450054
194	0x3ce8574d	0.02836194
195	0x3c8137e5	0.015773723
196	0x3c0717a8	0.008245386
197	0x3bdc3b4c	0.006720936
198	0x3c457376	0.012051454
199	0x3c211393	0.009831327

running_var f4 [200]
0	0x3a5ad5cd	0.0008347899
1	0x398bee59	0.0002668973
2	0x39c39294	0.00037302508
3	0x39400679	0.00018312958
4	0x3a5e3147	0.0008475971
5	0x3a1f707d	0.0006082131
6	0x39a58ae3	0.0003157473
7	0x3948f913	0.00019166274
8	0x3a1582dc	0.00057033985
9	0x3a3e7d5b	0.0007266604
10	0x3a76255c	0.0009389722
11	0x39e025d0	0.00042752782
12	0x39e14ec5	0.00042974032
13	0x3987f4f3	0.00025931708
14	0x396e8a69	0.0002274901
15	0x390a2f89	0.00013178414
16	0x388d272b	6.7306995e-05
17	0x394468e7	0.00018731096
18	0x3a57b868	0.0008229078
19	0x39abe730	0.0003278791
20	0x3a687aca	0.00088683947
21	0x3933516d	0.00017101104
22	0x3994d717	0.00028389014
23	0x39b3c52e	0.0003428845
24	0x3a0f0e50	0.000545715
25	0x39c28a73	0.00037105716
26	0x39ca02b5	0.0003853046
27	0x3943b1d9	0.00018662903
28	0x3a051eeb	0.00050781545
29	0x3a9f7cf7	0.001216798
30	0x3a4b20fd	0.0007748751
31	0x3a21b887	0.00061691593
32	0x394fc69f	0.0001981505
33	0x39373600	0.00017472357
34	0x3a3fe376	0.0007319966
35	0x39d4af5f	0.00040566453
36	0x39993fa4	0.0002922985
37	0x3991d4e1	0.00027815162
38	0x3a2bebe1	0.0006558281
39	0x3973cc59	0.00023250411
40	0x39305044	0.00016814569
41	0x3949d217	0.00019247118
42	0x38b0fd35	8.4394975e-05
43	0x39d6fb69	0.00041004576
44	0x3a3f5adb	0.00072996103
45	0x3951e956	0.00020018718
46	0x39ea0a11	0.00044639458
47	0x3aa936f1	0.001291005
48	0x3a5c63a6	0.0008407183
49	0x3a05fa9c	0.0005110891
50	0x3953785c	0.00020167365
51	0x3991c566	0.00027803628
52	0x3a331827	0.0006831907
53	0x39dc1612	0.00041978114
54	0x3aa40583	0.001251385
55	0x3aa7c72a	0.0012800444
56	0x3902ad44	0.00012462313
57	0x39dbc402	0.00041916972
58	0x3a34e8bc	0.0006901135
59	0x39e272fc	0.0004319175
60	0x3a9a1a9c	0.0011757198
61	0x3a95c654	0.0011426904
62	0x390f9aa0	0.00013695145
63	0x39c7c169	0.0003810034
64	0x399e991e	0.0003025019
65	0x398233c8	0.00024834112
66	0x3a29e931	0.00064815866
67	0x3a06fc64	0.00051493035
68	0x3a498d6f	0.0007688617
69	0x39b20a36	0.00033958413
70	0x3888c09d	6.5208624e-05
71	0x3a0516b5	0.0005076931
72	0x39d1c4ab	0.00040010115
73	0x39a19dcc	0.0003082588
74	0x399a9979	0.00029487515
75	0x39ccf6da	0.0003909383
76	0x3a9580d2	0.0011406189
77	0x3a722d1a	0.0009238288
78	0x388b0c32	6.630308e-05
79	0x39e06fce	0.0004280791
80	0x39f04ea7	0.00045834968
81	0x3a1fbe34	0.0006093711
82	0x38f66a5a	0.000117500036
83	0x39cdfdb7	0.0003928968
84	0x3a35ba3d	0.0006932354
85	0x393c5706	0.00017961496
86	0x39d648bb	0.0004087145
87	0x38b71ad0	8.731114e-05
88	0x39ffb936	0.00048775383
89	0x3979072c	0.00023749162
90	0x3a2a0eae	0.0006487173
91	0x399272e3	0.00027932887
92	0x39fdf17f	0.0004843585
93	0x39972286	0.00028826686
94	0x3a104168	0.00055029104
95	0x39bb7ef4	0.00035762007
96	0x397d0513	0.0002412985
97	0x3a31592c	0.0006765302
98	0x39503a62	0.00019858175
99	0x3a878fb0	0.0010342505
100	0x39e98fe6	0.00044548436
101	0x37db128b	2.611547e-05
102	0x39bf52b2	0.00036491972
103	0x39440bca	0.00018696408
104	0x397c515e	0.00024062904
105	0x399a434e	0.00029423315
106	0x3930a359	0.0001684552
107	0x3a2180fc	0.0006160883
108	0x3a39f790	0.00070940796
109	0x3a669c25	0.0008797071
110	0x39bd0c26	0.0003605794
111	0x3a0010ed	0.00048853346
112	0x3a15c602	0.00057134044
113	0x39c0d8b2	0.00036782544
114	0x3a30a374	0.00067382236
115	0x3ac478eb	0.001498965
116	0x3a16871a	0.00057421776
117	0x39a0e429	0.0003068757
118	0x38df12ef	0.00010636995
119	0x396185ca	0.00021507512
120	0x38b2f137	8.532631e-05
121	0x39d0c9ea	0.0003982329
122	0x3954ceb4	0.00020294898
123	0x39f6fbde	0.00047108432
124	0x3a883300	0.0010391176
125	0x3a1e38a0	0.00060356595
126	0x3a19d092	0.0005867566
127	0x39ec7764	0.0004510238
128	0x39e8e533	0.00044421255
129	0x3a050d5b	0.00050755375
130	0x39a47cca	0.00031373493
131	0x3a0400d4	0.0005035524
132	0x39caa600	0.00038652122
133	0x398f9f06	0.00027393567
134	0x390f32a7	0.00013656412
135	0x3a2f2fc3	0.0006682837
136	0x395ff92f	0.00021359765
137	0x39024de3	0.00012426781
138	0x3ad86847	0.0016510569
139	0x392c0c89	0.00016407868
140	0x39684856	0.00022152191
141	0x393722fb	0.00017465271
142	0x3a603fad	0.00085544103
143	0x39fe0b97	0.0004845529
144	0x3a79f17f	0.0009534582
145	0x39bf281a	0.00036460237
146	0x3a5451d1	0.000809935
147	0x39b46c74	0.0003441308
148	0x3931b3b2	0.00016946977
149	0x3a0d511e	0.00053908105
150	0x3a1b6345	0.0005927573
151	0x39187692	0.0001454002
152	0x39ea8ec2	0.0004473832
153	0x393613e7	0.00017364287
154	0x39f7665e	0.0004718778
155	0x397111d3	0.00022990191
156	0x3a3a5160	0.0007107463
157	0x39ac3050	0.00032842392
158	0x38c23e92	9.2622955e-05
159	0x39494295	0.00019193657
160	0x3a386795	0.0007034478
161	0x3a8ecccc	0.0010894774
162	0x3a60aa30	0.0008570282
163	0x390bb700	0.00013324246
164	0x3908bdf6	0.00013040737
165	0x3aa27881	0.0012395532
166	0x39a372e3	0.0003117538
167	0x394ae6fa	0.00019350267
168	0x3a1fcf7b	0.00060962857
169	0x3a56d5f0	0.00081953313
170	0x3a19a096	0.0005860416
171	0x394e3348	0.00019664795
172	0x39e69452	0.00043979526
173	0x3a40533b	0.0007336621
174	0x394181ea	0.00018454311
175	0x39c3a110	0.000373133
176	0x39933a48	0.00028081448
177	0x3aad380e	0.0013215558
178	0x38765f57	5.8739763e-05
179	0x3995736d	0.00028505494
180	0x39cca841	0.0003903527
181	0x38b47005	8.603934e-05
182	0x393f5ee8	0.00018250535
183	0x39e841e1	0.00044299572
184	0x3a9bef12	0.001189681
185	0x3a124795	0.00055801246
186	0x39b80e6b	0.00035105957
187	0x39bbab11	0.00035794874
188	0x39940dd1	0.00028239054
189	0x39d14147	0.00039912222
190	0x3aa7d732	0.0012805222
191	0x3a9bad79	0.001187726
192	0x3a61ffd8	0.00086211925
193	0x3ac2fa05	0.0014875537
194	0x3a09f3a5	0.0005262441
195	0x3a370430	0.000698152
196	0x39850cfe	0.00025377417
197	0x39105d28	0.00013767614
198	0x39e90d86	0.000444513
199	0x398b1871	0.00026530356

weight f4 [100, 200]
0	0x3d8fc593	0.07020106
1	0xbda7787a	-0.08177276
2	0xbd984d1b	-0.07436582
3	0x3d926093	0.07147326
4	0xbdc13f2b	-0.094358765
5	0x3cb2294f	0.021748213
6	0x3c876991	0.01652983
7	0x3d6751d4	0.05647452
8	0xbd4a6530	-0.049412906
9	0xbd7baaf6	-0.061442338
10	0xbc2f9995	-0.010717769
11	0xbd0a94db	-0.033833366
12	0xbd006641	-0.031347517
13	0xbc829e83	-0.015944725
14	0xbd22ae13	-0.03971679
15	0x3d49bc74	0.04925199
16	0xbd6b3ebd	-0.05743288
17	0xbd8ce749	-0.06880052
18	0xbdaeb7a2	-0.08531119
19	0x3dab201d	0.083557345
20	0x3b163feb	0.0022926282
21	0x3da5b461	0.08091045
22	0x3c6b4879	0.014360541
23	0xbc9da276	-0.019242506
24	0x3dd3e6ff	0.103467934
25	0xbd494566	-0.04913845
26	0x3d24fbda	0.040279247
27	0x3ce3f47d	0.027826542
28	0x3cceb368	0.025232032
29	0xbe3070d2	-0.17230538
30	0xbc3107ef	-0.010805114
31	0x3bdcd73a	0.006739524
32	0xbd20ad9d	-0.03922807
33	0x3d115c44	0.035488382
34	0xbcf023f8	-0.029314026
35	0xbce723c4	-0.028215297
36	0x3d8119e7	0.063037686
37	0xbd70d17a	-0.058793522
38	0x3d73d560	0.059529662
39	0x3d0f4178	0.034974545
40	0xbd38339b	-0.04497109
41	0xbd4dbda0	-0.05022967
42	0xbdb705c5	-0.08936647
43	0xba1bbef0	-0.00059412327
44	0xbac34bd6	-0.001489992
45	0x3d4426c4	0.047888532
46	0x3e0c6938	0.13712013
47	0xbd531825	-0.051536698
48	0x3b5b5d32	0.0033472297
49	0x3c54f5e5	0.012998079
50	0x3dc65e17	0.09685915
51	0x3d63d8e8	0.05562678
52	0xbd0330dc	-0.032029018
53	0x3d0588c5	0.032601137
54	0xbd1a29e2	-0.0376376
55	0xbdc2fa65	-0.09520415
56	0x3d9d4c2c	0.07680544
57	0x3c7ffc3d	0.015624103
58	0x3ce4e857	0.02794282
59	0xbd52e167	-0.05148449
60	0xbd63c9bc	-0.05561231
61	0xbd81ab44	-0.063314945
62	0x3d3ebece	0.046568684
63	0x3c4036d2	0.01173182
64	0xbc6a2f12	-0.014293449
65	0x3da49efa	0.08038135
66	0x3d5ec964	0.05439128
67	0x3dade72a	0.08491357
68	0x3d8b703d	0.06808517
69	0x3d45abf4	0.04825969
70	0xbca9fdb1	-0.020750852
71	0xbc55395b	-0.013014163
72	0xbda3a5bd	-0.079905964
73	0x3ca35664	0.019938655
74	0xbc4082e2	-0.011749955
75	0x3c633b3e	0.013869105
76	0xbd708c6d	-0.05872767
77	0x3bb276aa	0.0054462748
78	0xbdc881e3	-0.09790399
79	0xbda9947d	-0.08280275
80	0xbd0b1ace	-0.03396111
81	0x3b0e694b	0.002173024
82	0xbd683666	-0.056692503
83	0xbd13a091	-0.0360418
84	0x392104a3	0.00015355884
85	0x3c8df3b5	0.017328123
86	0xbdbad219	-0.09122104
87	0x3d25d4c9	0.04048613
88	0xbdcb4015	-0.09924332
89	0x3d9c234f	0.07623922
90	0x3dd73285	0.10507683
91	0x3c1b8a2a	0.00949339
92	0x3d5cb023	0.053878915
93	0xbdf2933d	-0.1184449
94	0x3d34d98b	0.044152778
95	0x3cb18f66	0.021674823
96	0x3d234714	0.039862707
97	0xbdd254d5	-0.10270087
98	0x3d2a2712	0.041541167
99	0xbd8f5fac	-0.0700067
100	0xbd23b5c8	-0.039968282
101	0x3cc39e84	0.023879297
102	0xbd2a9199	-0.04164276
103	0x3cc22be5	0.023702571
104	0xbd86a4b3	-0.06574383
105	0xbbd4f01c	-0.00649835
106	0x3d2b787f	0.04186296
107	0x3d511737	0.05104753
108	0xbc82a2f2	-0.015946839
109	0x3d3bc029	0.045837555
110	0x3c058a43	0.00815064
111	0xbde1ec5f	-0.11031412
112	0x3d014586	0.031560443
113	0x3e00daa3	0.12583403
114	0xbc772170	-0.015083656
115	0xbda022d3	-0.07819142
116	0x3d33ab7d	0.043864716
117	0xbd1454e1	-0.03621376
118	0xbc6ef202	-0.014584066
119	0xbd078c89	-0.03309301
120	0x3c87b004	0.016563423
121	0x3c8d9328	0.017282084
122	0xbdc604b0	-0.09668863
123	0x3d9a3f3b	0.075315915
124	0xbc7fd0cd	-0.015613747
125	0xbbfbc366	-0.0076832054
126	0x3bffba17	0.007804166
127	0xbd1be119	-0.038056467
128	0xbc86a8e6	-0.016437959
129	0x3bdc96ae	0.0067318296
130	0xbd9deffb	-0.07711788
131	0x3cb19038	0.021675214
132	0x3d59ae80	0.05314493
133	0xbcde05d9	-0.027102398
134	0x3da6b44d	0.081398584
135	0xbd387f89	-0.045043502
136	0xbc5fcad0	-0.013659194
137	0xbcb66d1a	-0.02226882
138	0xbd47fe7f	-0.04882669
139	0xbcd7b03f	-0.026329158
140	0xbc75158d	-0.014958751
141	0x3d102b17	0.035197344
142	0xbdbc6cc5	-0.09200434
143	0x3d239b63	0.03994311
144	0x3d9ba77d	0.07600305
145	0xbd287c46	-0.04113414
146	0x3d95e94b	0.07319888
147	0x3dcaa9dc	0.09895679
148	0x3d4f84f5	0.050663907
149	0xbd91d093	-0.071198605
150	0xbbbd50d6	-0.0057774587
151	0xbdab8e2a	-0.08376725
152	0x3d428411	0.04748923
153	0xbda72231	-0.08160818
154	0x3d094c10	0.033519804
155	0xbc68afc9	-0.014202067
156	0x3c50f396	0.012753388
157	0xbc4bb618	-0.012433551
158	0x3ba051f9	0.0048925844
159	0x3e29157c	0.16512102
160	0x3d795a5f	0.0608772
161	0x3c89de9a	0.016829778
162	0x3d5f710b	0.054551166
163	0xbd8d9be4	-0.069144994
164	0x3d63e9c0	0.055642843
165	0x3d883835	0.06651346
166	0x3d29e4ee	0.04147809
167	0xbdc42c42	-0.09578754
168	0x3c976344	0.01847995
169	0xbc5a876f	-0.013337954
170	0x3c64add8	0.013957463
171	0xbd8efb95	-0.06981579
172	0xbd05806b	-0.032593172
173	0xbe11817e	-0.14209554
174	0x3c957e8b	0.018248817
175	0xbdc33bd9	-0.095328994
176	0x3d088567	0.033330347
177	0xbcd4a82e	-0.0259591
178	0x3dba1a1e	0.09087013
179	0x3cafa251	0.021439703
180	0xbc179fc6	-0.009254402
181	0x3ca5f239	0.020257102
182	0xbd160686	-0.036627315
183	0xbc0a3e09	-0.008437642
184	0xbd930e4e	-0.07180463
185	0xbde512f3	-0.11185255
186	0xbc0429ee	-0.008066637
187	0x3d6ac2ee	0.057314806
188	0x3d48fe74	0.04907079
189	0x3bc9ac7e	0.006154596
190	0xbdd38452	-0.103279725
191	0x3d5dfda5	0.054196972
192	0xbd32e83a	-0.0436785
193	0xbc38d510	-0.011281267
194	0x3c8b5aee	0.017011132
195	0x3d475f91	0.048675124
196	0xbd9a97ea	-0.075485066
197	0xbaebee48	-0.001800009
198	0xbd1863fe	-0.037204735
199	0xbd0ad1ae	-0.033891372
200	0x3d7fe9d6	0.062478863
201	0xb9bce4c2	-0.00036028592
202	0x3ca6ead2	0.020375643
203	0xbb3203dd	-0.0027162947
204	0xbd1124bb	-0.03543542
205	0x3d35fb83	0.044429313
206	0xbd0938e4	-0.03350152
207	0xbdadfdd2	-0.08495678
208	0xbd27cd4f	-0.040967282
209	0xbd832d5a	-0.064051345
210	0x3daed7a4	0.08537224
211	0xbd66aefe	-0.05631923
212	0x3dbb5dd4	0.09148756
213	0xbce268a5	-0.027637789
214	0x3da3a39f	0.079901926
215	0x3e02e0b6	0.12781033
216	0xbdcecd47	-0.10097747
217	0xbdfb07fb	-0.122573815
218	0xbc5672ff	-0.013088941
219	0xbd8531cd	-0.06503639
220	0xbd737be0	-0.05944431
221	0x3d8a19ee	0.06743227
222	0xbbc63851	-0.006049194
223	0x3d87ab27	0.066244416
224	0x3d5bf8d1	0.053704087
225	0x3cfd835c	0.030946426
226	0xbd7ddc76	-0.061977826
227	0xb9da7e05	-0.00041674092
228	0x3d48ae11	0.048994128
229	0xbdff0244	-0.12451604
230	0xbe17a02f	-0.14807199
231	0x3d4e3ef0	0.05035299
232	0x3b91fe10	0.0044553354
233	0x3d936ba4	0.07198265
234	0xbe07cbd7	-0.13261352
235	0xbccb012c	-0.024780832
236	0x3d096ebc	0.03355287
237	0xbd6b26aa	-0.05740992
238	0x3a306aca	0.000672978
239	0xbd8299ac	-0.06376967
240	0xbc17eac2	-0.009272279
241	0x3dcb110d	0.099153616
242	0xbd413b78	-0.047175854
243	0xbc44ae56	-0.012004456
244	0x3c6142dd	0.013748852
245	0x3dd8ea2b	0.10591539
246	0x3df610c6	0.12014918
247	0xbda18067	-0.07885819
248	0xbcd53d21	-0.026030125
249	0xbc313223	-0.010815176
250	0x3cc7371a	0.024318267
251	0x3d3c1265	0.04591598
252	0x3d5dccba	0.05415032
253	0xbd3eeef1	-0.04661459
254	0xbdc3a28c	-0.09552488
255	0xbe0b8d1f	-0.13628052

weight f4 [100]
0	0x3f8899c1	1.0671922
1	0x3f8609ff	1.04718
2	0x3f7aad71	0.979209
3	0x3f8888aa	1.0666707
4	0x3f860214	1.0469384
5	0x3f8ea2b7	1.1143407
6	0x3f906d7a	1.128341
7	0x3f49414b	0.78615254
8	0x3f822e7f	1.017044
9	0x3f72f2c9	0.9490171
10	0x3f8a3244	1.079659
11	0x3f79c8dc	0.9757211
12	0x3f86711e	1.0503271
13	0x3f8b5af0	1.0887127
14	0x3f7a4847	0.97766536
15	0x3f7e0997	0.9923338
16	0x3f7d9f68	0.9907136
17	0x3f7bf9e9	0.9842821
18	0x3f79c0d7	0.97559875
19	0x3f831755	1.0241495
20	0x3f722d73	0.946006
21	0x3f892af3	1.0716232
22	0x3f87abd1	1.0599309
23	0x3f854dbf	1.0414351
24	0x3f7d6e66	0.9899658
25	0x3f7bea52	0.9840442
26	0x3f798f04	0.9748385
27	0x3f864c9b	1.0492128
28	0x3f82d517	1.022128
29	0x3f7a7bdf	0.9784526
30	0x3f7adba8	0.9799142
31	0x3f800425	1.0001265
32	0x3f863a1b	1.0486482
33	0x3f85fb58	1.0467329
34	0x3f830ad8	1.0237684
35	0x3f7b8b0f	0.9825906
36	0x3f861fa4	1.0478406
37	0x3f85784e	1.0427339
38	0x3f84b0c1	1.0366441
39	0x3f8a937e	1.0826261
40	0x3f86b46d	1.0523812
41	0x3f6c7e54	0.9238026
42	0x3f80820f	1.0039691
43	0x3f7925e5	0.9732345
44	0x3f842d1b	1.0326265
45	0x3f8a8c62	1.0824091
46	0x3f83a576	1.028487
47	0x3f7c63a8	0.98589563
48	0x3f844cd4	1.0335946
49	0x3f882037	1.0634831
50	0x3f70c29c	0.9404695
51	0x3f819d70	1.0126171
52	0x3f8066b4	1.0031343
53	0x3f7e5a77	0.9935679
54	0x3f7d7501	0.9900666
55	0x3f817ee1	1.0116845
56	0x3f8723f6	1.055785
57	0x3f63b05b	0.8894097
58	0x3f86f7f7	1.0544423
59	0x3f9347c4	1.1506276
60	0x3f8d13f4	1.1021714
61	0x3f88c84c	1.0686126
62	0x3f7bf956	0.9842733
63	0x3f85c84c	1.0451751
64	0x3f91469e	1.1349676
65	0x3f7971ab	0.9743907
66	0x3f81a781	1.0129243
67	0x3f7e6725	0.99376136
68	0x3f7dbc6a	0.9911562
69	0x3f802ce3	1.0013698
70	0x3f8a89cc	1.0823302
71	0x3f7bc79b	0.9835145
72	0x3f5a4a44	0.8526957
73	0x3f7ce88c	0.9879234
74	0x3f869c8a	1.0516522
75	0x3f7a7639	0.97836643
76	0x3f7eff93	0.99608725
77	0x3f977318	1.1831999
78	0x3f7e12d0	0.99247456
79	0x3f7d0783	0.98839587
80	0x3f81852e	1.0118768
81	0x3f8f5408	1.1197519
82	0x3f8b181a	1.086673
83	0x3f9878b4	1.1911836
84	0x3f81b834	1.0134339
85	0x3f858f82	1.043442
86	0x3f7722b1	0.9653731
87	0x3f7e1a4a	0.99258864
88	0x3f879021	1.059086
89	0x3f7b3689	0.9813009
90	0x3f7c5f80	0.9858322
91	0x3f8774ab	1.0582479
92	0x3f6bf77b	0.921745
93	0x3f78af1f	0.97142214
94	0x3f824a34	1.0178895
95	0x3f8d7f89	1.1054546
96	0x3f7ef8f3	0.99598616
97	0x3f824019	1.0175811
98	0x3f7437a4	0.953974
99	0x3f785b86	0.97014654

bias f4 [100]
0	0xbd575a7a	-0.05257652
1	0xbdc836ee	-0.09776102
2	0x3d8ecc2a	0.06972535
3	0x3ddd0fb6	0.10794012
4	0xbd967454	-0.073464066
5	0xbdfef705	-0.12449459
6	0xbdc36a3c	-0.09541747
7	0x3d221da0	0.039579034
8	0x3dbd2e20	0.09237313
9	0x3ddd2a3c	0.10799071
10	0xbda1e892	-0.079056874
11	0xbc65213b	-0.013984974
12	0xbd9ecfd8	-0.07754487
13	0xbe1de43d	-0.15419097
14	0x3d5bdd2c	0.053677723
15	0x3d957828	0.072983086
16	0xbd0716b9	-0.032980654
17	0x3d6308a2	0.055428155
18	0x3d2c091d	0.04200088
19	0x3dc1a327	0.09454947
20	0x3dbefe5f	0.09325861
21	0xbdaa3aed	-0.083120205
22	0x3dde17aa	0.10844357
23	0x3dc148f3	0.09437742
24	0x3d847640	0.06467867
25	0x3d9b5cc8	0.07586056
26	0x3d5d04d7	0.053959694
27	0x3dba2965	0.09089927
28	0xbd107e91	-0.035276953
29	0x3dbd918b	0.09256276
30	0x3d5fc96a	0.054635443
31	0x3d600a20	0.054697156
32	0x3dafe3e6	0.0858839
33	0xbda30dfb	-0.07961651
34	0x3dac8e13	0.08425536
35	0x3d9efbe8	0.07762891
36	0xbd8a4e86	-0.067532584
37	0x3e08a2fc	0.13343424
38	0xbd580a73	-0.05274434
39	0xbdd984de	-0.106210455
40	0xbda8dd81	-0.082453735
41	0xbc0beced	-0.008540374
42	0xbd966c12	-0.073448315
43	0x3d751a10	0.05983931
44	0xbdad4f78	-0.08462423
45	0x3df07b4a	0.117422655
46	0xbd459b60	-0.04824388
47	0x3d58c7b0	0.05292481
48	0xbd70d8ec	-0.058800623
49	0xbd96bd79	-0.07360358
50	0x3d58a8c2	0.052895315
51	0xbd6e6fc2	-0.05821205
52	0x3d907444	0.07053426
53	0x3d4a18d1	0.049340073
54	0x3dff5e0e	0.124691114
55	0x3d50db1a	0.0509902
56	0x3dd1a10e	0.10235797
57	0x3cfe605b	0.031051805
58	0xbdd37217	-0.10324495
59	0xbdb2e0a0	-0.0873425
60	0xbd9325fb	-0.071849786
61	0x3de09510	0.109659314
62	0x3d88e13a	0.066835836
63	0xbd5bf3a4	-0.05369915
64	0xbe09a4b0	-0.1344173
65	0x3d617db1	0.05505151
66	0x3dbe09db	0.092792235
67	0xbd6a2f1e	-0.05717384
68	0x3da310cc	0.07962188
69	0x3da43701	0.08018304
70	0xbdb7d19a	-0.08975525
71	0x3dc280b2	0.09497203
72	0x3da02467	0.07819443
73	0xbd6b0532	-0.057378
74	0xbd2f8abb	-0.042856913
75	0x3dab5cdb	0.0836732
76	0xbd7afcc3	-0.06127621
77	0xbdad977c	-0.08476159
78	0xbd3d8e4d	-0.046278287
79	0x3d837f80	0.06420803
80	0x3e454749	0.19265474
81	0x3e5732a8	0.21015418
82	0x3daecf6c	0.08535656
83	0xbe21c0e1	-0.15796234
84	0xbd347897	-0.044060316
85	0x3dd4e48c	0.10395154
86	0x3d944991	0.07240594
87	0xbd3c7ca6	-0.04601731
88	0xbd1b3d5f	-0.037900325
89	0xbdb33218	-0.08749789
90	0xbd1a7750	-0.03771144
91	0xbda41a1d	-0.08012793
92	0x3d90c25c	0.07068321
93	0x3d59c3cc	0.053165242
94	0x3de70db2	0.11281909
95	0xbde6e9fc	-0.11275098
96	0xbd6ae4d1	-0.057347123
97	0xbd0c88ab	-0.034310024
98	0xbcf36987	-0.029713405
99	0x3d84b32a	0.06479485

running_mean f4 [100]
0	0x3f9e8a80	1.2386017
1	0x40013420	2.0188065
2	0x3f859337	1.0435551
3	0x3fbc3026	1.4702194
4	0x3fa0d15d	1.2563893
5	0x3f9575d7	1.1676587
6	0x3fdebf73	1.7402176
7	0x3fc7dd1a	1.561435
8	0x3fc39898	1.5280943
9	0x3fa48cb8	1.2855444
10	0x400fc353	2.2462966
11	0x3f6b5c65	0.9193786
12	0x3f9cb566	1.2242858
13	0x3fe3e255	1.7803446
14	0x3f23e122	0.640154
15	0x3f8aa5e6	1.0831878
16	0x3f85ad60	1.0443535
17	0x3f61d21e	0.8821124
18	0x3f0fabbb	0.56121415
19	0x3f95cc77	1.1703023
20	0x3fcd39b8	1.6033239
21	0x3f7501a6	0.9570564
22	0x3fbf8b2f	1.496435
23	0x3fa3155e	1.2740896
24	0x3fabab44	1.3411641
25	0x3fbaec03	1.4603275
26	0x3f43d72c	0.765002
27	0x3fba32f6	1.4546802
28	0x3f821871	1.0163709
29	0x3f8e0bf8	1.1097403
30	0x3f74397d	0.9540022
31	0x3f89047c	1.0704494
32	0x3f9db715	1.2321497
33	0x3f9c9b61	1.2234918
34	0x3fa85926	1.3152206
35	0x3f79e7dd	0.9761942
36	0x3f48a7a4	0.783808
37	0x3fb87e27	1.4413499
38	0x3f95e2ea	1.1709874
39	0x3fb23ff1	1.3925763
40	0x3fb982b2	1.449301
41	0x3f7fd8f9	0.9994045
42	0x3fb88edc	1.4418597
43	0x3f3f6f1a	0.747789
44	0x3fdf286b	1.743421
45	0x3ff66b1a	1.9251435
46	0x3fb4c323	1.4122051
47	0x3f9ffc71	1.2498914
48	0x3fabe0df	1.3428
49	0x3fab7f95	1.339831
50	0x3f37d571	0.7181006
51	0x3f94b97d	1.1619107
52	0x3f0cb9fc	0.5497129
53	0x3f904394	1.1270623
54	0x3fa3afce	1.2788026
55	0x3f92e238	1.1475286
56	0x3fb2c5cc	1.3966613
57	0x3f84c3c5	1.0372244
58	0x3fa45dfa	1.2841179
59	0x3f9d0c5d	1.2269398
60	0x3fa2dc02	1.2723391
61	0x3f9a1259	1.2036849
62	0x3fa8357d	1.3141323
63	0x3f576e41	0.8415261
64	0x4043d24a	3.05971
65	0x3f4d6a20	0.8024006
66	0x3fa006ad	1.2502037
67	0x3fb81e40	1.4384232
68	0x3f67e9c3	0.9059107
69	0x3f761a10	0.9613352
70	0x3f870715	1.0549036
71	0x3f96693f	1.1750869
72	0x3f058e75	0.521705
73	0x3f719047	0.94360775
74	0x3f7f88cf	0.9981813
75	0x3f83707f	1.0268706
76	0x3fdf046d	1.7423226
77	0x3fcb0b32	1.5862792
78	0x3f843dd1	1.0331365
79	0x3f7f544b	0.99737996
80	0x400167ce	2.0219607
81	0x4050ac83	3.2605293
82	0x3f9d08e0	1.2268333
83	0x3fdcc400	1.7247314
84	0x3f673537	0.90315574
85	0x3fab6532	1.3390257
86	0x3f4bac54	0.79559827
87	0x3f323958	0.6961875
88	0x3f81e1b0	1.0146999
89	0x3fce453e	1.6114881
90	0x3f519da3	0.8188116
91	0x401a9af4	2.4157076
92	0x3f8c0b75	1.0940996
93	0x3f4257c0	0.75915146
94	0x3faaf48e	1.3355882
95	0x3fb099bb	1.3796915
96	0x3f707769	0.93932205
97	0x3f6fc0c3	0.93653506
98	0x3f8d33e2	1.1031458
99	0x3f627b48	0.8846936
